name: "Compress_net"
layer {
  name: "data"
  type: "Data"
  top: "data"
  include {
    phase: TRAIN
  }
  transform_param {
    scale: 0.0039215684
    mean_file: "../../build/train_mean.binaryproto"
  }
  data_param {
    backend: LMDB
    source: "../../build/train_lmdb"
    batch_size: 32
  }
}
layer {
  name: "data"
  type: "Data"
  top: "data"
  include {
    phase: TEST
  }
  transform_param {
    scale: 0.0039215684
    mean_file: "../../build/val_mean.binaryproto"
  }
  data_param {
    backend: LMDB
    source: "../../build/val_lmdb"
    batch_size: 10
  }
}
layer {
  name: "flatdata"
  type: "Flatten"
  bottom: "data"
  top: "flatdata"
}
layer {
  name: "encode1"
  type: "InnerProduct"
  bottom: "flatdata"
  top: "encode1"
  param {
    lr_mult: 1
    decay_mult: 1
  }
  param {
    lr_mult: 1
    decay_mult: 0
  }
  inner_product_param {
    num_output: 2048
    weight_filler {
      type: "gaussian"
      std: 1
      sparse: 15
    }
    bias_filler {
      type: "constant"
      value: 0
    }
  }
}
layer {
  name: "encode1neuron"
  type: "ReLU"
  bottom: "encode1"
  top: "encode1neuron"
}
layer {
  name: "encode2"
  type: "InnerProduct"
  bottom: "encode1neuron"
  top: "encode2"
  param {
    lr_mult: 1
    decay_mult: 1
  }
  param {
    lr_mult: 1
    decay_mult: 0
  }
  inner_product_param {
    num_output: 1024
    weight_filler {
      type: "gaussian"
      std: 1
      sparse: 15
    }
    bias_filler {
      type: "constant"
      value: 0
    }
  }
}
layer {
  name: "encode2neuron"
  type: "ReLU"
  bottom: "encode2"
  top: "encode2neuron"
}
layer {
  name: "encode3"
  type: "InnerProduct"
  bottom: "encode2neuron"
  top: "encode3"
  param {
    lr_mult: 1
    decay_mult: 1
  }
  param {
    lr_mult: 1
    decay_mult: 0
  }
  inner_product_param {
    num_output: 512
    weight_filler {
      type: "gaussian"
      std: 1
      sparse: 15
    }
    bias_filler {
      type: "constant"
      value: 0
    }
  }
}
layer {
  name: "encode3neuron"
  type: "ReLU"
  bottom: "encode3"
  top: "encode3neuron"
}
layer {
  name: "decode3"
  type: "InnerProduct"
  bottom: "encode3neuron"
  top: "decode3"
  param {
    lr_mult: 1
    decay_mult: 1
  }
  param {
    lr_mult: 1
    decay_mult: 0
  }
  inner_product_param {
    num_output: 1024
    weight_filler {
      type: "gaussian"
      std: 1
      sparse: 15
    }
    bias_filler {
      type: "constant"
      value: 0
    }
  }
}
layer {
  name: "decode3neuron"
  type: "ReLU"
  bottom: "decode3"
  top: "decode3neuron"
}
layer {
  name: "decode2"
  type: "InnerProduct"
  bottom: "decode3neuron"
  top: "decode2"
  param {
    lr_mult: 1
    decay_mult: 1
  }
  param {
    lr_mult: 1
    decay_mult: 0
  }
  inner_product_param {
    num_output: 2048
    weight_filler {
      type: "gaussian"
      std: 1
      sparse: 15
    }
    bias_filler {
      type: "constant"
      value: 0
    }
  }
}
layer {
  name: "decode2neuron"
  type: "ReLU"
  bottom: "decode2"
  top: "decode2neuron"
}
layer {
  name: "decode1"
  type: "InnerProduct"
  bottom: "decode2neuron"
  top: "decode1"
  param {
    lr_mult: 1
    decay_mult: 1
  }
  param {
    lr_mult: 1
    decay_mult: 0
  }
  inner_product_param {
    num_output: 40000
    weight_filler {
      type: "gaussian"
      std: 1
      sparse: 15
    }
    bias_filler {
      type: "constant"
      value: 0
    }
  }
}
layer {
  name: "loss"
  type: "SigmoidCrossEntropyLoss"
  bottom: "decode1"
  bottom: "flatdata"
  top: "cross_entropy_loss"
  loss_weight: 0
}
layer {
  name: "decode1neuron"
  type: "Sigmoid"
  bottom: "decode1"
  top: "decode1neuron"
}
layer {
  name: "loss"
  type: "EuclideanLoss"
  bottom: "decode1neuron"
  bottom: "flatdata"
  top: "l2_error"
  loss_weight: 1
}