name: "Compress_net"
layer {
  name: "data"
  type: "Input"
  top: "data"
  input_param {shape: {dim: 1 dim: 3 dim: 227 dim: 227}}
}
layer {
  name: "conv1"
  type: "Convolution"
  bottom: "data"
  top: "conv1"
  param {
	lr_mult: 1	  
  }
  param {
	lr_mult: 3	  
  }
  convolution_param {
    num_output: 8
    kernel_size: 9
    stride: 1
    weight_filler { type: "xavier" }
    bias_filler { type: "constant" }
  }
}
layer {
  name: "sig1en"
  type: "Sigmoid"
  bottom: "conv1"
  top: "conv1"
}
layer {
  name: "conv2"
  type: "Convolution"
  bottom: "conv1"
  top: "conv2"
  param {
	lr_mult: 1	  
  }
  param {
	lr_mult: 3	  
  }
  convolution_param {
    num_output: 4
    kernel_size: 9
    stride: 1
    weight_filler { type: "xavier" }
    bias_filler { type: "constant" }
  }
}
layer {
  name: "sig2en"
  type: "Sigmoid"
  bottom: "conv2"
  top: "conv2"
}
layer {
  name: "ip1encode"
  type: "InnerProduct"
  bottom: "conv2"
  top: "ip1encode"
  param {
	lr_mult: 1	  
  }
  param {
	lr_mult: 3	  
  }
  inner_product_param {
    num_output: 1024
    weight_filler { type: "gaussian" std: 1 sparse: 25 }
    bias_filler { type: "constant" }
  }
}
layer {
  name: "sig3en"
  type: "Sigmoid"
  bottom: "ip1encode"
  top: "ip1encode"
}
layer {
  name: "ip2encode"
  type: "InnerProduct"
  bottom: "ip1encode"
  top: "ip2encode"
  param {
	lr_mult: 1	  
  }
  param {
	lr_mult: 3	  
  }
  inner_product_param {
    num_output: 1024
    weight_filler { type: "gaussian" std: 1 sparse: 10 }
    bias_filler { type: "constant" }
  }
}
