name: "Compress_net"
layer {
  name: "data"
  type: "Data"
  top: "data"
  include {
    phase: TRAIN
  }
  transform_param {
    scale: 0.0039215684
    mean_file: "../../build/train_mean.binaryproto"
  }
  data_param {
    source: "../../build/train_lmdb"
    batch_size: 100
    backend: LMDB
  }
}
layer {
  name: "data"
  type: "Data"
  top: "data"
  include {
    phase: TEST
    stage: "test-on-train"
  }
  transform_param {
    scale: 0.0039215684
    mean_file: "../../build/train_mean.binaryproto"
  }
  data_param {
    source: "../../build/train_lmdb"
    batch_size: 100
    backend: LMDB
  }
}
layer {
  name: "data"
  type: "Data"
  top: "data"
  include {
    phase: TEST
    stage: "test-on-test"
  }
  transform_param {
    scale: 0.0039215684
    mean_file: "../../build/val_mean.binaryproto"
  }
  data_param {
    source: "../../build/val_lmdb"
    batch_size: 100
    backend: LMDB
  }
}
layer {
  name: "flatdata"
  type: "Flatten"
  bottom: "data"
  top: "flatdata"
}
layer {
  name: "encode1"
  type: "InnerProduct"
  bottom: "data"
  top: "encode1"
  param {
    lr_mult: 1
    decay_mult: 1
  }
  param {
    lr_mult: 1
    decay_mult: 0
  }
  inner_product_param {
    num_output: 32
    weight_filler {
      type: "gaussian"
      std: 1
      sparse: 15
    }
    bias_filler {
      type: "constant"
      value: 0
    }
  }
}
layer {
  name: "decode1"
  type: "InnerProduct"
  bottom: "encode1"
  top: "decode1"
  param {
    lr_mult: 1
    decay_mult: 1
  }
  param {
    lr_mult: 1
    decay_mult: 0
  }
  inner_product_param {
    num_output: 784
    weight_filler {
      type: "gaussian"
      std: 1
      sparse: 15
    }
    bias_filler {
      type: "constant"
      value: 0
    }
  }
}
layer {
  name: "loss"
  type: "SigmoidCrossEntropyLoss"
  bottom: "decode1"
  bottom: "flatdata"
  top: "cross_entropy_loss"
  loss_weight: 1
}
layer {
  name: "decode1neuron"
  type: "Sigmoid"
  bottom: "decode1"
  top: "decode1neuron"
}
layer {
  name: "loss"
  type: "EuclideanLoss"
  bottom: "decode1neuron"
  bottom: "flatdata"
  top: "l2_error"
  loss_weight: 0
}