name: "Compress_net"
layer {
  name: "data"
  type: "Data"
  top: "data"
  top: "image"
  include {
    phase: TRAIN
  }
  transform_param {
    crop_size: 227
    mean_file: "../../build/train_mean.binaryproto"
  }
  data_param {
  	backend: LMDB
    source: "../../build/train_lmdb"
	#new_width: 256
	#new_height: 256
    batch_size: 3
  }
}
layer {
  name: "data"
  type: "Data"
  top: "data"
  top: "image"
  include {
    phase: TEST
  }
  transform_param {
    crop_size: 227
    mean_file: "../../build/val_mean.binaryproto"
  }
  data_param {
  	backend: LMDB
    source: "../../build/val_lmdb"
	#new_width: 256
	#new_height: 256
    batch_size: 3
  }
}
layer {
  name: "conv1"
  type: "Convolution"
  bottom: "data"
  top: "conv1"
  param {
    lr_mult: 1
    decay_mult: 1
  }
  param {
    lr_mult: 2
    decay_mult: 0
  }
  convolution_param {
    num_output: 96
    kernel_size: 10
    stride: 4
    weight_filler {
      type: "gaussian"
      std: 0.01
    }
    bias_filler {
      type: "constant"
      value: 0
    }
  }
}
layer {
  name: "conv2"
  type: "Convolution"
  bottom: "conv1"
  top: "conv2"
  param {
    lr_mult: 1
    decay_mult: 1
  }
  param {
    lr_mult: 2
    decay_mult: 0
  }
  convolution_param {
    num_output: 256
    pad: 2
    kernel_size: 11
	stride: 8
    weight_filler {
      type: "gaussian"
      std: 0.01
    }
    bias_filler {
      type: "constant"
      value: 0.1
    }
  }
}
layer {
  name: "conv3"
  type: "Convolution"
  bottom: "conv2"
  top: "conv3"
  param {
    lr_mult: 1
    decay_mult: 1
  }
  param {
    lr_mult: 2
    decay_mult: 0
  }
  convolution_param {
    num_output: 256
    kernel_size: 5
	stride: 3
    weight_filler {
      type: "gaussian"
      std: 0.01
    }
    bias_filler {
      type: "constant"
      value: 0.1
    }
  }
}
layer {
  name: "deConv1"
  type: "Deconvolution"
  bottom: "conv3"
  top: "deConv1"
  param {
    lr_mult: 1
    decay_mult: 1
  }
  param {
    lr_mult: 2
    decay_mult: 0
  }
  convolution_param {
    num_output: 256
    kernel_size: 7
	stride: 3
    weight_filler {
      type: "gaussian"
      std: 0.01
    }
    bias_filler {
      type: "constant"
      value: 0.1
    }
  }
}
layer {
  name: "deConv2"
  type: "Deconvolution"
  bottom: "deConv1"
  top: "deConv2"
  param {
    lr_mult: 1
    decay_mult: 1
  }
  param {
    lr_mult: 2
    decay_mult: 0
  }
  convolution_param {
    num_output: 96
    pad: 2
    kernel_size: 11
	stride: 8
    weight_filler {
      type: "gaussian"
      std: 0.01
    }
    bias_filler {
      type: "constant"
      value: 0.1
    }
  }
}
layer {
  name: "deConv3"
  type: "Deconvolution"
  bottom: "deConv2"
  top: "deConv3"
  param {
    lr_mult: 1
    decay_mult: 1
  }
  param {
    lr_mult: 2
    decay_mult: 0
  }
  convolution_param {
    num_output: 3
    kernel_size: 11
    stride: 4
    weight_filler {
      type: "gaussian"
      std: 0.01
    }
    bias_filler {
      type: "constant"
      value: 0
    }
  }
}
layer {
  name: "accuracy"
  type: "Accuracy"
  bottom: "conv3"
  bottom: "image"
  top: "accuracy"
  include {
    phase: TEST
  }
}
layer {
  name: "loss"
  type: "MultinomialLogisticLoss"
  bottom: "deConv3"
  bottom: "image"
  top: "loss"
}
